…
  AUG:
    ENABLED: False
    FLIP: True
    MAX_SIZE: 4000
    MIN_SIZES: (400, 500, 600, 700, 800, 900, 1000, 1100, 1200)
  DETECTIONS_PER_IMAGE: 100
  EVAL_PERIOD: 0
  EXPECTED_RESULTS: []
  KEYPOINT_OKS_SIGMAS: []
  PRECISE_BN:
    ENABLED: False
    NUM_ITER: 200
VERSION: 2
VIS_PERIOD: 0
[11/02 13:18:18] detectron2 INFO: Full config saved to ./output/mvdnet/config.yaml
[11/02 13:18:18] d2.utils.env INFO: Using a generated random seed 18477991
[11/02 13:28:02] d2.engine.defaults INFO: Model:
MVDNet(
  (backbone): MVDNetBackbone(
    (radar_backbone): VGG(
      (stem): MVDNetStem(
        (conv1): Conv2d(
          1, 32, kernel_size=(3, 3), stride=(1, 1), padding=(1, 1), bias=False
          (norm): FrozenBatchNorm2d(num_features=32, eps=1e-05)
        )
      )
      (down1): Sequential(
        (0): Conv2d(
          32, 32, kernel_size=(3, 3), stride=(1, 1), padding=(1, 1), bias=False
          (norm): BatchNorm2d(32, eps=1e-05, momentum=0.1, affine=True, track_running_stats=True)
        )
        (1): Conv2d(
          32, 32, kernel_size=(3, 3), stride=(1, 1), padding=(1, 1), bias=False
          (norm): BatchNorm2d(32, eps=1e-05, momentum=0.1, affine=True, track_running_stats=True)
        )
        (2): Conv2d(
          32, 32, kernel_size=(3, 3), stride=(1, 1), padding=(1, 1), bias=False
          (norm): BatchNorm2d(32, eps=1e-05, momentum=0.1, affine=True, track_running_stats=True)
        )
      )
      (down2): Sequential(
        (0): MaxPool2d(kernel_size=2, stride=2, padding=0, dilation=1, ceil_mode=False)
        (1): Conv2d(
          32, 64, kernel_size=(3, 3), stride=(1, 1), padding=(1, 1), bias=False
          (norm): BatchNorm2d(64, eps=1e-05, momentum=0.1, affine=True, track_running_stats=True)
        )
        (2): Conv2d(
          64, 64, kernel_size=(3, 3), stride=(1, 1), padding=(1, 1), bias=False
          (norm): BatchNorm2d(64, eps=1e-05, momentum=0.1, affine=True, track_running_stats=True)
        )
        (3): Conv2d(
          64, 64, kernel_size=(3, 3), stride=(1, 1), padding=(1, 1), bias=False
          (norm): BatchNorm2d(64, eps=1e-05, momentum=0.1, affine=True, track_running_stats=True)
        )
      )
      (up1): ConvTranspose2d(
        64, 32, kernel_size=(3, 3), stride=(2, 2), padding=(1, 1), output_padding=(1, 1), bias=False
        (norm): BatchNorm2d(32, eps=1e-05, momentum=0.1, affine=True, track_running_stats=True)
      )
      (fusion1): Conv2d(
        64, 32, kernel_size=(3, 3), stride=(1, 1), padding=(1, 1), bias=False
        (norm): BatchNorm2d(32, eps=1e-05, momentum=0.1, affine=True, track_running_stats=True)
      )
      (final_fusion): Conv2d(
        160, 32, kernel_size=(1, 1), stride=(1, 1), bias=False
        (norm): BatchNorm2d(32, eps=1e-05, momentum=0.1, affine=True, track_running_stats=True)
      )
    )
    (lidar_backbone): VGG(
      (stem): MVDNetStem(
        (conv1): Conv2d(
          36, 32, kernel_size=(3, 3), stride=(1, 1), padding=(1, 1), bias=False
          (norm): FrozenBatchNorm2d(num_features=32, eps=1e-05)
        )
      )
      (down1): Sequential(
        (0): Conv2d(
          32, 64, kernel_size=(3, 3), stride=(1, 1), padding=(1, 1), bias=False
          (norm): BatchNorm2d(64, eps=1e-05, momentum=0.1, affine=True, track_running_stats=True)
        )
        (1): Conv2d(
          64, 64, kernel_size=(3, 3), stride=(1, 1), padding=(1, 1), bias=False
          (norm): BatchNorm2d(64, eps=1e-05, momentum=0.1, affine=True, track_running_stats=True)
        )
        (2): Conv2d(
          64, 64, kernel_size=(3, 3), stride=(1, 1), padding=(1, 1), bias=False
          (norm): BatchNorm2d(64, eps=1e-05, momentum=0.1, affine=True, track_running_stats=True)
        )
      )
      (down2): Sequential(
        (0): MaxPool2d(kernel_size=2, stride=2, padding=0, dilation=1, ceil_mode=False)
        (1): Conv2d(
          64, 128, kernel_size=(3, 3), stride=(1, 1), padding=(1, 1), bias=False
          (norm): BatchNorm2d(128, eps=1e-05, momentum=0.1, affine=True, track_running_stats=True)
        )
        (2): Conv2d(
          128, 128, kernel_size=(3, 3), stride=(1, 1), padding=(1, 1), bias=False
          (norm): BatchNorm2d(128, eps=1e-05, momentum=0.1, affine=True, track_running_stats=True)
        )
        (3): Conv2d(
          128, 128, kernel_size=(3, 3), stride=(1, 1), padding=(1, 1), bias=False
          (norm): BatchNorm2d(128, eps=1e-05, momentum=0.1, affine=True, track_running_stats=True)
        )
      )
      (up1): ConvTranspose2d(
        128, 64, kernel_size=(3, 3), stride=(2, 2), padding=(1, 1), output_padding=(1, 1), bias=False
        (norm): BatchNorm2d(64, eps=1e-05, momentum=0.1, affine=True, track_running_stats=True)
      )
      (fusion1): Conv2d(
        128, 64, kernel_size=(3, 3), stride=(1, 1), padding=(1, 1), bias=False
        (norm): BatchNorm2d(64, eps=1e-05, momentum=0.1, affine=True, track_running_stats=True)
      )
      (final_fusion): Conv2d(
        320, 64, kernel_size=(1, 1), stride=(1, 1), bias=False
        (norm): BatchNorm2d(64, eps=1e-05, momentum=0.1, affine=True, track_running_stats=True)
      )
    )
  )
  (proposal_generator): MVDNetRRPN(
    (radar_rpn_anchor_generator): RotatedAnchorGenerator(
      (cell_anchors): BufferList()
    )
    (lidar_rpn_anchor_generator): RotatedAnchorGenerator(
      (cell_anchors): BufferList()
    )
    (radar_rpn_rpn_head): StandardRPNHead(
      (conv): Conv2d(32, 32, kernel_size=(3, 3), stride=(1, 1), padding=(1, 1))
      (objectness_logits): Conv2d(32, 4, kernel_size=(1, 1), stride=(1, 1))
      (anchor_deltas): Conv2d(32, 20, kernel_size=(1, 1), stride=(1, 1))
    )
    (lidar_rpn_rpn_head): StandardRPNHead(
      (conv): Conv2d(64, 64, kernel_size=(3, 3), stride=(1, 1), padding=(1, 1))
      (objectness_logits): Conv2d(64, 4, kernel_size=(1, 1), stride=(1, 1))
      (anchor_deltas): Conv2d(64, 20, kernel_size=(1, 1), stride=(1, 1))
    )
  )
  (roi_heads): MVDNetROIHeads(
    (box_pooler): ROIPooler(
      (level_poolers): ModuleList(
        (0): ROIAlignRotated(output_size=(7, 7), spatial_scale=1.0, sampling_ratio=0)
      )
    )
    (box_head): MVDNetBoxHead(
      (match_conv): Conv2d(
        64, 32, kernel_size=(3, 3), stride=(1, 1), padding=(1, 1), bias=False
        (norm): BatchNorm2d(32, eps=1e-05, momentum=0.1, affine=True, track_running_stats=True)
      )
      (radar_self_attention): SelfAttentionBlock(
        (g): Linear(in_features=1568, out_features=196, bias=True)
        (theta): Linear(in_features=1568, out_features=196, bias=True)
        (phi): Linear(in_features=1568, out_features=196, bias=True)
        (W): Linear(in_features=196, out_features=1568, bias=True)
      )
      (lidar_self_attention): SelfAttentionBlock(
        (g): Linear(in_features=1568, out_features=196, bias=True)
        (theta): Linear(in_features=1568, out_features=196, bias=True)
        (phi): Linear(in_features=1568, out_features=196, bias=True)
        (W): Linear(in_features=196, out_features=1568, bias=True)
      )
      (radar_cross_attention): CrossAttentionBlock(
        (g): Linear(in_features=1568, out_features=196, bias=True)
        (theta): Linear(in_features=1568, out_features=196, bias=True)
        (phi): Linear(in_features=1568, out_features=196, bias=True)
        (W): Linear(in_features=196, out_features=1568, bias=True)
      )
      (lidar_cross_attention): CrossAttentionBlock(
        (g): Linear(in_features=1568, out_features=196, bias=True)
        (theta): Linear(in_features=1568, out_features=196, bias=True)
        (phi): Linear(in_features=1568, out_features=196, bias=True)
        (W): Linear(in_features=196, out_features=1568, bias=True)
      )
      (tnn1): Conv3d(
        64, 32, kernel_size=[3, 3, 3], stride=(1, 1, 1), padding=[1, 1, 1], bias=False
        (norm): BatchNorm3d(32, eps=1e-05, momentum=0.1, affine=True, track_running_stats=True)
      )
      (tnn2): Conv3d(
        32, 32, kernel_size=[3, 3, 3], stride=(1, 1, 1), padding=[1, 1, 1], bias=False
        (norm): BatchNorm3d(32, eps=1e-05, momentum=0.1, affine=True, track_running_stats=True)
      )
      (tnn3): Conv3d(
        32, 32, kernel_size=[5, 3, 3], stride=(1, 1, 1), padding=[0, 1, 1], bias=False
        (norm): BatchNorm3d(32, eps=1e-05, momentum=0.1, affine=True, track_running_stats=True)
      )
      (fc1): Linear(in_features=1568, out_features=1024, bias=True)
      (fc2): Linear(in_features=1024, out_features=1024, bias=True)
    )
    (box_predictor): FastRCNNOutputLayers(
      (cls_score): Linear(in_features=1024, out_features=2, bias=True)
      (bbox_pred): Linear(in_features=1024, out_features=5, bias=True)
    )
    (direct_predictor): MVDNetRCNNOutputLayers(
      (direct_score): Linear(in_features=1024, out_features=2, bias=True)
    )
  )
)
[11/02 13:28:04] d2.data.build INFO: Removed 367 images with no usable annotations. 6697 images left.
[11/02 13:28:04] d2.data.build INFO: Distribution of instances among all 1 categories:
|  category  | #instances   |
|:----------:|:-------------|
|    car     | 42928        |
|            |              |
[11/02 13:28:04] d2.data.common INFO: Serializing 6697 elements to byte tensors and concatenating them all ...
…
  AUG:
    ENABLED: False
    FLIP: True
    MAX_SIZE: 4000
    MIN_SIZES: (400, 500, 600, 700, 800, 900, 1000, 1100, 1200)
  DETECTIONS_PER_IMAGE: 100
  EVAL_PERIOD: 0
  EXPECTED_RESULTS: []
  KEYPOINT_OKS_SIGMAS: []
  PRECISE_BN:
    ENABLED: False
    NUM_ITER: 200
VERSION: 2
VIS_PERIOD: 0
[12/15 16:59:01] detectron2 INFO: Full config saved to ./output/mvdnet/config.yaml
[12/15 16:59:01] d2.utils.env INFO: Using a generated random seed 1549173
[12/15 16:59:01] d2.engine.defaults INFO: Model:
MVDNet(
  (backbone): MVDNetBackbone(
    (radar_backbone): VGG(
      (stem): MVDNetStem(
        (conv1): Conv2d(
          1, 32, kernel_size=(3, 3), stride=(1, 1), padding=(1, 1), bias=False
          (norm): FrozenBatchNorm2d(num_features=32, eps=1e-05)
        )
      )
      (down1): Sequential(
        (0): Conv2d(
          32, 32, kernel_size=(3, 3), stride=(1, 1), padding=(1, 1), bias=False
          (norm): BatchNorm2d(32, eps=1e-05, momentum=0.1, affine=True, track_running_stats=True)
        )
        (1): Conv2d(
          32, 32, kernel_size=(3, 3), stride=(1, 1), padding=(1, 1), bias=False
          (norm): BatchNorm2d(32, eps=1e-05, momentum=0.1, affine=True, track_running_stats=True)
        )
        (2): Conv2d(
          32, 32, kernel_size=(3, 3), stride=(1, 1), padding=(1, 1), bias=False
          (norm): BatchNorm2d(32, eps=1e-05, momentum=0.1, affine=True, track_running_stats=True)
        )
      )
      (down2): Sequential(
        (0): MaxPool2d(kernel_size=2, stride=2, padding=0, dilation=1, ceil_mode=False)
        (1): Conv2d(
          32, 64, kernel_size=(3, 3), stride=(1, 1), padding=(1, 1), bias=False
          (norm): BatchNorm2d(64, eps=1e-05, momentum=0.1, affine=True, track_running_stats=True)
        )
        (2): Conv2d(
          64, 64, kernel_size=(3, 3), stride=(1, 1), padding=(1, 1), bias=False
          (norm): BatchNorm2d(64, eps=1e-05, momentum=0.1, affine=True, track_running_stats=True)
        )
        (3): Conv2d(
          64, 64, kernel_size=(3, 3), stride=(1, 1), padding=(1, 1), bias=False
          (norm): BatchNorm2d(64, eps=1e-05, momentum=0.1, affine=True, track_running_stats=True)
        )
      )
      (up1): ConvTranspose2d(
        64, 32, kernel_size=(3, 3), stride=(2, 2), padding=(1, 1), output_padding=(1, 1), bias=False
        (norm): BatchNorm2d(32, eps=1e-05, momentum=0.1, affine=True, track_running_stats=True)
      )
      (fusion1): Conv2d(
        64, 32, kernel_size=(3, 3), stride=(1, 1), padding=(1, 1), bias=False
        (norm): BatchNorm2d(32, eps=1e-05, momentum=0.1, affine=True, track_running_stats=True)
      )
    )
    (lidar_backbone): VGG(
      (stem): MVDNetStem(
        (conv1): Conv2d(
          36, 32, kernel_size=(3, 3), stride=(1, 1), padding=(1, 1), bias=False
          (norm): FrozenBatchNorm2d(num_features=32, eps=1e-05)
        )
      )
      (down1): Sequential(
        (0): Conv2d(
          32, 64, kernel_size=(3, 3), stride=(1, 1), padding=(1, 1), bias=False
          (norm): BatchNorm2d(64, eps=1e-05, momentum=0.1, affine=True, track_running_stats=True)
        )
        (1): Conv2d(
          64, 64, kernel_size=(3, 3), stride=(1, 1), padding=(1, 1), bias=False
          (norm): BatchNorm2d(64, eps=1e-05, momentum=0.1, affine=True, track_running_stats=True)
        )
        (2): Conv2d(
          64, 64, kernel_size=(3, 3), stride=(1, 1), padding=(1, 1), bias=False
          (norm): BatchNorm2d(64, eps=1e-05, momentum=0.1, affine=True, track_running_stats=True)
        )
      )
      (down2): Sequential(
        (0): MaxPool2d(kernel_size=2, stride=2, padding=0, dilation=1, ceil_mode=False)
        (1): Conv2d(
          64, 128, kernel_size=(3, 3), stride=(1, 1), padding=(1, 1), bias=False
          (norm): BatchNorm2d(128, eps=1e-05, momentum=0.1, affine=True, track_running_stats=True)
        )
        (2): Conv2d(
          128, 128, kernel_size=(3, 3), stride=(1, 1), padding=(1, 1), bias=False
          (norm): BatchNorm2d(128, eps=1e-05, momentum=0.1, affine=True, track_running_stats=True)
        )
        (3): Conv2d(
          128, 128, kernel_size=(3, 3), stride=(1, 1), padding=(1, 1), bias=False
          (norm): BatchNorm2d(128, eps=1e-05, momentum=0.1, affine=True, track_running_stats=True)
        )
      )
      (up1): ConvTranspose2d(
        128, 64, kernel_size=(3, 3), stride=(2, 2), padding=(1, 1), output_padding=(1, 1), bias=False
        (norm): BatchNorm2d(64, eps=1e-05, momentum=0.1, affine=True, track_running_stats=True)
      )
      (fusion1): Conv2d(
        128, 64, kernel_size=(3, 3), stride=(1, 1), padding=(1, 1), bias=False
        (norm): BatchNorm2d(64, eps=1e-05, momentum=0.1, affine=True, track_running_stats=True)
      )
    )
  )
  (proposal_generator): MVDNetRRPN(
    (radar_rpn_anchor_generator): RotatedAnchorGenerator(
      (cell_anchors): BufferList()
    )
    (lidar_rpn_anchor_generator): RotatedAnchorGenerator(
      (cell_anchors): BufferList()
    )
    (radar_rpn_rpn_head): StandardRPNHead(
      (conv): Conv2d(32, 32, kernel_size=(3, 3), stride=(1, 1), padding=(1, 1))
      (objectness_logits): Conv2d(32, 4, kernel_size=(1, 1), stride=(1, 1))
      (anchor_deltas): Conv2d(32, 20, kernel_size=(1, 1), stride=(1, 1))
    )
    (lidar_rpn_rpn_head): StandardRPNHead(
      (conv): Conv2d(64, 64, kernel_size=(3, 3), stride=(1, 1), padding=(1, 1))
      (objectness_logits): Conv2d(64, 4, kernel_size=(1, 1), stride=(1, 1))
      (anchor_deltas): Conv2d(64, 20, kernel_size=(1, 1), stride=(1, 1))
    )
  )
  (roi_heads): MVDNetROIHeads(
    (box_pooler): ROIPooler(
      (level_poolers): ModuleList(
        (0): ROIAlignRotated(output_size=(7, 7), spatial_scale=1.0, sampling_ratio=0)
      )
    )
    (box_head): MVDNetBoxHead(
      (match_conv): Conv2d(
        64, 32, kernel_size=(3, 3), stride=(1, 1), padding=(1, 1), bias=False
        (norm): BatchNorm2d(32, eps=1e-05, momentum=0.1, affine=True, track_running_stats=True)
      )
      (radar_self_attention): SelfAttentionBlock(
        (g): Linear(in_features=1568, out_features=196, bias=True)
        (theta): Linear(in_features=1568, out_features=196, bias=True)
        (phi): Linear(in_features=1568, out_features=196, bias=True)
        (W): Linear(in_features=196, out_features=1568, bias=True)
      )
      (lidar_self_attention): SelfAttentionBlock(
        (g): Linear(in_features=1568, out_features=196, bias=True)
        (theta): Linear(in_features=1568, out_features=196, bias=True)
        (phi): Linear(in_features=1568, out_features=196, bias=True)
        (W): Linear(in_features=196, out_features=1568, bias=True)
      )
      (radar_cross_attention): CrossAttentionBlock(
        (g): Linear(in_features=1568, out_features=196, bias=True)
        (theta): Linear(in_features=1568, out_features=196, bias=True)
        (phi): Linear(in_features=1568, out_features=196, bias=True)
        (W): Linear(in_features=196, out_features=1568, bias=True)
      )
      (lidar_cross_attention): CrossAttentionBlock(
        (g): Linear(in_features=1568, out_features=196, bias=True)
        (theta): Linear(in_features=1568, out_features=196, bias=True)
        (phi): Linear(in_features=1568, out_features=196, bias=True)
        (W): Linear(in_features=196, out_features=1568, bias=True)
      )
      (tnn): Conv2d(
        64, 32, kernel_size=(3, 3), stride=(1, 1), padding=(1, 1), bias=False
        (norm): BatchNorm2d(32, eps=1e-05, momentum=0.1, affine=True, track_running_stats=True)
      )
      (fc1): Linear(in_features=1568, out_features=1024, bias=True)
      (fc2): Linear(in_features=1024, out_features=1024, bias=True)
    )
    (box_predictor): FastRCNNOutputLayers(
      (cls_score): Linear(in_features=1024, out_features=2, bias=True)
      (bbox_pred): Linear(in_features=1024, out_features=5, bias=True)
    )
    (direct_predictor): MVDNetRCNNOutputLayers(
      (direct_score): Linear(in_features=1024, out_features=2, bias=True)
    )
  )
)
[12/15 16:59:01] d2.data.build INFO: Removed 367 images with no usable annotations. 6697 images left.
[12/15 16:59:01] d2.data.build INFO: Distribution of instances among all 1 categories:
[36m|  category  | #instances   |
|:----------:|:-------------|
|    car     | 42928        |
|            |              |[0m
[12/15 16:59:01] d2.data.common INFO: Serializing 6697 elements to byte tensors and concatenating them all ...
…
